…
valuate=False, expandConfig=None, expandSize=2, from_modelzoo=False, growth=8, layers=40, learningratescheduler='cifarschedular', logdir='../logs/densenetbc_cifar10_40_8', lr=0.1, manualSeed=123, maxlr=0.1, minlr=0.0005, model_def='densenet_cifar', momentum=0.9, name='densenetbc_cifar10_40_8', nclasses=10, nesterov=True, ngpus=1, optimType='sgd', pretrained=False, pretrained_file='', printfreq=200, reduce=0.5, resume='', start_epoch=0, store='', tenCrop=False, tensorboard=True, testOnly=False, verbose=False, weightDecay=0.0001, weight_init=False, widen_factor=4, workers=2)
DenseNet3 (
  (conv1): Conv2d(3, 16, kernel_size=(3, 3), stride=(1, 1), padding=(1, 1), bias=False)
  (block1): DenseBlock (
    (layer): Sequential (
      (0): BottleneckBlock (
        (bn1): BatchNorm2d(16, eps=1e-05, momentum=0.1, affine=True)
        (relu): ReLU (inplace)
        (conv1): Conv2d(16, 32, kernel_size=(1, 1), stride=(1, 1), bias=False)
        (bn2): BatchNorm2d(32, eps=1e-05, momentum=0.1, affine=True)
        (conv2): Conv2d(32, 8, kernel_size=(3, 3), stride=(1, 1), padding=(1, 1), bias=False)
      )
      (1): BottleneckBlock (
        (bn1): BatchNorm2d(24, eps=1e-05, momentum=0.1, affine=True)
        (relu): ReLU (inplace)
        (conv1): Conv2d(24, 32, kernel_size=(1, 1), stride=(1, 1), bias=False)
        (bn2): BatchNorm2d(32, eps=1e-05, momentum=0.1, affine=True)
        (conv2): Conv2d(32, 8, kernel_size=(3, 3), stride=(1, 1), padding=(1, 1), bias=False)
      )
      (2): BottleneckBlock (
        (bn1): BatchNorm2d(32, eps=1e-05, momentum=0.1, affine=True)
        (relu): ReLU (inplace)
        (conv1): Conv2d(32, 32, kernel_size=(1, 1), stride=(1, 1), bias=False)
        (bn2): BatchNorm2d(32, eps=1e-05, momentum=0.1, affine=True)
        (conv2): Conv2d(32, 8, kernel_size=(3, 3), stride=(1, 1), padding=(1, 1), bias=False)
      )
      (3): BottleneckBlock (
        (bn1): BatchNorm2d(40, eps=1e-05, momentum=0.1, affine=True)
        (relu): ReLU (inplace)
        (conv1): Conv2d(40, 32, kernel_size=(1, 1), stride=(1, 1), bias=False)
        (bn2): BatchNorm2d(32, eps=1e-05, momentum=0.1, affine=True)
        (conv2): Conv2d(32, 8, kernel_size=(3, 3), stride=(1, 1), padding=(1, 1), bias=False)
      )
      (4): BottleneckBlock (
        (bn1): BatchNorm2d(48, eps=1e-05, momentum=0.1, affine=True)
        (relu): ReLU (inplace)
        (conv1): Conv2d(48, 32, kernel_size=(1, 1), stride=(1, 1), bias=False)
        (bn2): BatchNorm2d(32, eps=1e-05, momentum=0.1, affine=True)
        (conv2): Conv2d(32, 8, kernel_size=(3, 3), stride=(1, 1), padding=(1, 1), bias=False)
      )
      (5): BottleneckBlock (
        (bn1): BatchNorm2d(56, eps=1e-05, momentum=0.1, affine=True)
        (relu): ReLU (inplace)
        (conv1): Conv2d(56, 32, kernel_size=(1, 1), stride=(1, 1), bias=False)
        (bn2): BatchNorm2d(32, eps=1e-05, momentum=0.1, affine=True)
        (conv2): Conv2d(32, 8, kernel_size=(3, 3), stride=(1, 1), padding=(1, 1), bias=False)
      )
    )
  )
  (trans1): TransitionBlock (
    (bn1): BatchNorm2d(64, eps=1e-05, momentum=0.1, affine=True)
    (relu): ReLU (inplace)
    (conv1): Conv2d(64, 32, kernel_size=(1, 1), stride=(1, 1), bias=False)
  )
  (block2): DenseBlock (
    (layer): Sequential (
      (0): BottleneckBlock (
        (bn1): BatchNorm2d(32, eps=1e-05, momentum=0.1, affine=True)
        (relu): ReLU (inplace)
        (conv1): Conv2d(32, 32, kernel_size=(1, 1), stride=(1, 1), bias=False)
        (bn2): BatchNorm2d(32, eps=1e-05, momentum=0.1, affine=True)
        (conv2): Conv2d(32, 8, kernel_size=(3, 3), stride=(1, 1), padding=(1, 1), bias=False)
      )
      (1): BottleneckBlock (
        (bn1): BatchNorm2d(40, eps=1e-05, momentum=0.1, affine=True)
        (relu): ReLU (inplace)
        (conv1): Conv2d(40, 32, kernel_size=(1, 1), stride=(1, 1), bias=False)
        (bn2): BatchNorm2d(32, eps=1e-05, momentum=0.1, affine=True)
        (conv2): Conv2d(32, 8, kernel_size=(3, 3), stride=(1, 1), padding=(1, 1), bias=False)
      )
      (2): BottleneckBlock (
        (bn1): BatchNorm2d(48, eps=1e-05, momentum=0.1, affine=True)
        (relu): ReLU (inplace)
        (conv1): Conv2d(48, 32, kernel_size=(1, 1), stride=(1, 1), bias=False)
        (bn2): BatchNorm2d(32, eps=1e-05, momentum=0.1, affine=True)
        (conv2): Conv2d(32, 8, kernel_size=(3, 3), stride=(1, 1), padding=(1, 1), bias=False)
      )
      (3): BottleneckBlock (
        (bn1): BatchNorm2d(56, eps=1e-05, momentum=0.1, affine=True)
        (relu): ReLU (inplace)
        (conv1): Conv2d(56, 32, kernel_size=(1, 1), stride=(1, 1), bias=False)
        (bn2): BatchNorm2d(32, eps=1e-05, momentum=0.1, affine=True)
        (conv2): Conv2d(32, 8, kernel_size=(3, 3), stride=(1, 1), padding=(1, 1), bias=False)
      )
      (4): BottleneckBlock (
        (bn1): BatchNorm2d(64, eps=1e-05, momentum=0.1, affine=True)
        (relu): ReLU (inplace)
        (conv1): Conv2d(64, 32, kernel_size=(1, 1), stride=(1, 1), bias=False)
        (bn2): BatchNorm2d(32, eps=1e-05, momentum=0.1, affine=True)
        (conv2): Conv2d(32, 8, kernel_size=(3, 3), stride=(1, 1), padding=(1, 1), bias=False)
      )
      (5): BottleneckBlock (
        (bn1): BatchNorm2d(72, eps=1e-05, momentum=0.1, affine=True)
        (relu): ReLU (inplace)
        (conv1): Conv2d(72, 32, kernel_size=(1, 1), stride=(1, 1), bias=False)
        (bn2): BatchNorm2d(32, eps=1e-05, momentum=0.1, affine=True)
        (conv2): Conv2d(32, 8, kernel_size=(3, 3), stride=(1, 1), padding=(1, 1), bias=False)
      )
    )
  )
  (trans2): TransitionBlock (
    (bn1): BatchNorm2d(80, eps=1e-05, momentum=0.1, affine=True)
    (relu): ReLU (inplace)
    (conv1): Conv2d(80, 40, kernel_size=(1, 1), stride=(1, 1), bias=False)
  )
  (block3): DenseBlock (
    (layer): Sequential (
      (0): BottleneckBlock (
        (bn1): BatchNorm2d(40, eps=1e-05, momentum=0.1, affine=True)
        (relu): ReLU (inplace)
        (conv1): Conv2d(40, 32, kernel_size=(1, 1), stride=(1, 1), bias=False)
        (bn2): BatchNorm2d(32, eps=1e-05, momentum=0.1, affine=True)
        (conv2): Conv2d(32, 8, kernel_size=(3, 3), stride=(1, 1), padding=(1, 1), bias=False)
      )
      (1): BottleneckBlock (
        (bn1): BatchNorm2d(48, eps=1e-05, momentum=0.1, affine=True)
        (relu): ReLU (inplace)
        (conv1): Conv2d(48, 32, kernel_size=(1, 1), stride=(1, 1), bias=False)
        (bn2): BatchNorm2d(32, eps=1e-05, momentum=0.1, affine=True)
        (conv2): Conv2d(32, 8, kernel_size=(3, 3), stride=(1, 1), padding=(1, 1), bias=False)
      )
      (2): BottleneckBlock (
        (bn1): BatchNorm2d(56, eps=1e-05, momentum=0.1, affine=True)
        (relu): ReLU (inplace)
        (conv1): Conv2d(56, 32, kernel_size=(1, 1), stride=(1, 1), bias=False)
        (bn2): BatchNorm2d(32, eps=1e-05, momentum=0.1, affine=True)
        (conv2): Conv2d(32, 8, kernel_size=(3, 3), stride=(1, 1), padding=(1, 1), bias=False)
      )
      (3): BottleneckBlock (
        (bn1): BatchNorm2d(64, eps=1e-05, momentum=0.1, affine=True)
        (relu): ReLU (inplace)
        (conv1): Conv2d(64, 32, kernel_size=(1, 1), stride=(1, 1), bias=False)
        (bn2): BatchNorm2d(32, eps=1e-05, momentum=0.1, affine=True)
        (conv2): Conv2d(32, 8, kernel_size=(3, 3), stride=(1, 1), padding=(1, 1), bias=False)
      )
      (4): BottleneckBlock (
        (bn1): BatchNorm2d(72, eps=1e-05, momentum=0.1, affine=True)
        (relu): ReLU (inplace)
        (conv1): Conv2d(72, 32, kernel_size=(1, 1), stride=(1, 1), bias=False)
        (bn2): BatchNorm2d(32, eps=1e-05, momentum=0.1, affine=True)
        (conv2): Conv2d(32, 8, kernel_size=(3, 3), stride=(1, 1), padding=(1, 1), bias=False)
      )
      (5): BottleneckBlock (
        (bn1): BatchNorm2d(80, eps=1e-05, momentum=0.1, affine=True)
        (relu): ReLU (inplace)
        (conv1): Conv2d(80, 32, kernel_size=(1, 1), stride=(1, 1), bias=False)
        (bn2): BatchNorm2d(32, eps=1e-05, momentum=0.1, affine=True)
        (conv2): Conv2d(32, 8, kernel_size=(3, 3), stride=(1, 1), padding=(1, 1), bias=False)
      )
    )
  )
  (bn1): BatchNorm2d(88, eps=1e-05, momentum=0.1, affine=True)
  (relu): ReLU (inplace)
  (fc): Linear (88 -> 10)
)
Files already downloaded and verified
Starting epoch number: 0 Learning rate: 0.1
Train: [0]	Time 20.790	Data 0.246	Loss 1.470	Prec@1 45.6360	Prec@5 90.7640	
Val: [0]	Time 1.519	Data 0.126	Loss 1.743	Prec@1 43.7300	Prec@5 93.5400	
Best Prec@1: [43.730]	
Starting epoch number: 1 Learning rate: 0.1
Train: [1]	Time 19.367	Data 0.252	Loss 1.013	Prec@1 63.9420	Prec@5 96.6120	
…
