…
e=False, expandConfig=None, expandSize=2, from_modelzoo=False, growth=12, layers=40, learningratescheduler='cifarschedular', logdir='../logs/densenetbc_cifar100_40_12', lr=0.1, manualSeed=123, maxlr=0.1, minlr=0.0005, model_def='densenet_cifar', momentum=0.9, name='densenetbc_cifar100_40_12', nclasses=100, nesterov=True, ngpus=1, optimType='sgd', pretrained=False, pretrained_file='', printfreq=200, reduce=0.5, resume='', start_epoch=0, store='', tenCrop=False, tensorboard=True, testOnly=False, verbose=False, weightDecay=0.0001, weight_init=False, widen_factor=4, workers=2)
DenseNet3 (
  (conv1): Conv2d(3, 24, kernel_size=(3, 3), stride=(1, 1), padding=(1, 1), bias=False)
  (block1): DenseBlock (
    (layer): Sequential (
      (0): BottleneckBlock (
        (bn1): BatchNorm2d(24, eps=1e-05, momentum=0.1, affine=True)
        (relu): ReLU (inplace)
        (conv1): Conv2d(24, 48, kernel_size=(1, 1), stride=(1, 1), bias=False)
        (bn2): BatchNorm2d(48, eps=1e-05, momentum=0.1, affine=True)
        (conv2): Conv2d(48, 12, kernel_size=(3, 3), stride=(1, 1), padding=(1, 1), bias=False)
      )
      (1): BottleneckBlock (
        (bn1): BatchNorm2d(36, eps=1e-05, momentum=0.1, affine=True)
        (relu): ReLU (inplace)
        (conv1): Conv2d(36, 48, kernel_size=(1, 1), stride=(1, 1), bias=False)
        (bn2): BatchNorm2d(48, eps=1e-05, momentum=0.1, affine=True)
        (conv2): Conv2d(48, 12, kernel_size=(3, 3), stride=(1, 1), padding=(1, 1), bias=False)
      )
      (2): BottleneckBlock (
        (bn1): BatchNorm2d(48, eps=1e-05, momentum=0.1, affine=True)
        (relu): ReLU (inplace)
        (conv1): Conv2d(48, 48, kernel_size=(1, 1), stride=(1, 1), bias=False)
        (bn2): BatchNorm2d(48, eps=1e-05, momentum=0.1, affine=True)
        (conv2): Conv2d(48, 12, kernel_size=(3, 3), stride=(1, 1), padding=(1, 1), bias=False)
      )
      (3): BottleneckBlock (
        (bn1): BatchNorm2d(60, eps=1e-05, momentum=0.1, affine=True)
        (relu): ReLU (inplace)
        (conv1): Conv2d(60, 48, kernel_size=(1, 1), stride=(1, 1), bias=False)
        (bn2): BatchNorm2d(48, eps=1e-05, momentum=0.1, affine=True)
        (conv2): Conv2d(48, 12, kernel_size=(3, 3), stride=(1, 1), padding=(1, 1), bias=False)
      )
      (4): BottleneckBlock (
        (bn1): BatchNorm2d(72, eps=1e-05, momentum=0.1, affine=True)
        (relu): ReLU (inplace)
        (conv1): Conv2d(72, 48, kernel_size=(1, 1), stride=(1, 1), bias=False)
        (bn2): BatchNorm2d(48, eps=1e-05, momentum=0.1, affine=True)
        (conv2): Conv2d(48, 12, kernel_size=(3, 3), stride=(1, 1), padding=(1, 1), bias=False)
      )
      (5): BottleneckBlock (
        (bn1): BatchNorm2d(84, eps=1e-05, momentum=0.1, affine=True)
        (relu): ReLU (inplace)
        (conv1): Conv2d(84, 48, kernel_size=(1, 1), stride=(1, 1), bias=False)
        (bn2): BatchNorm2d(48, eps=1e-05, momentum=0.1, affine=True)
        (conv2): Conv2d(48, 12, kernel_size=(3, 3), stride=(1, 1), padding=(1, 1), bias=False)
      )
    )
  )
  (trans1): TransitionBlock (
    (bn1): BatchNorm2d(96, eps=1e-05, momentum=0.1, affine=True)
    (relu): ReLU (inplace)
    (conv1): Conv2d(96, 48, kernel_size=(1, 1), stride=(1, 1), bias=False)
  )
  (block2): DenseBlock (
    (layer): Sequential (
      (0): BottleneckBlock (
        (bn1): BatchNorm2d(48, eps=1e-05, momentum=0.1, affine=True)
        (relu): ReLU (inplace)
        (conv1): Conv2d(48, 48, kernel_size=(1, 1), stride=(1, 1), bias=False)
        (bn2): BatchNorm2d(48, eps=1e-05, momentum=0.1, affine=True)
        (conv2): Conv2d(48, 12, kernel_size=(3, 3), stride=(1, 1), padding=(1, 1), bias=False)
      )
      (1): BottleneckBlock (
        (bn1): BatchNorm2d(60, eps=1e-05, momentum=0.1, affine=True)
        (relu): ReLU (inplace)
        (conv1): Conv2d(60, 48, kernel_size=(1, 1), stride=(1, 1), bias=False)
        (bn2): BatchNorm2d(48, eps=1e-05, momentum=0.1, affine=True)
        (conv2): Conv2d(48, 12, kernel_size=(3, 3), stride=(1, 1), padding=(1, 1), bias=False)
      )
      (2): BottleneckBlock (
        (bn1): BatchNorm2d(72, eps=1e-05, momentum=0.1, affine=True)
        (relu): ReLU (inplace)
        (conv1): Conv2d(72, 48, kernel_size=(1, 1), stride=(1, 1), bias=False)
        (bn2): BatchNorm2d(48, eps=1e-05, momentum=0.1, affine=True)
        (conv2): Conv2d(48, 12, kernel_size=(3, 3), stride=(1, 1), padding=(1, 1), bias=False)
      )
      (3): BottleneckBlock (
        (bn1): BatchNorm2d(84, eps=1e-05, momentum=0.1, affine=True)
        (relu): ReLU (inplace)
        (conv1): Conv2d(84, 48, kernel_size=(1, 1), stride=(1, 1), bias=False)
        (bn2): BatchNorm2d(48, eps=1e-05, momentum=0.1, affine=True)
        (conv2): Conv2d(48, 12, kernel_size=(3, 3), stride=(1, 1), padding=(1, 1), bias=False)
      )
      (4): BottleneckBlock (
        (bn1): BatchNorm2d(96, eps=1e-05, momentum=0.1, affine=True)
        (relu): ReLU (inplace)
        (conv1): Conv2d(96, 48, kernel_size=(1, 1), stride=(1, 1), bias=False)
        (bn2): BatchNorm2d(48, eps=1e-05, momentum=0.1, affine=True)
        (conv2): Conv2d(48, 12, kernel_size=(3, 3), stride=(1, 1), padding=(1, 1), bias=False)
      )
      (5): BottleneckBlock (
        (bn1): BatchNorm2d(108, eps=1e-05, momentum=0.1, affine=True)
        (relu): ReLU (inplace)
        (conv1): Conv2d(108, 48, kernel_size=(1, 1), stride=(1, 1), bias=False)
        (bn2): BatchNorm2d(48, eps=1e-05, momentum=0.1, affine=True)
        (conv2): Conv2d(48, 12, kernel_size=(3, 3), stride=(1, 1), padding=(1, 1), bias=False)
      )
    )
  )
  (trans2): TransitionBlock (
    (bn1): BatchNorm2d(120, eps=1e-05, momentum=0.1, affine=True)
    (relu): ReLU (inplace)
    (conv1): Conv2d(120, 60, kernel_size=(1, 1), stride=(1, 1), bias=False)
  )
  (block3): DenseBlock (
    (layer): Sequential (
      (0): BottleneckBlock (
        (bn1): BatchNorm2d(60, eps=1e-05, momentum=0.1, affine=True)
        (relu): ReLU (inplace)
        (conv1): Conv2d(60, 48, kernel_size=(1, 1), stride=(1, 1), bias=False)
        (bn2): BatchNorm2d(48, eps=1e-05, momentum=0.1, affine=True)
        (conv2): Conv2d(48, 12, kernel_size=(3, 3), stride=(1, 1), padding=(1, 1), bias=False)
      )
      (1): BottleneckBlock (
        (bn1): BatchNorm2d(72, eps=1e-05, momentum=0.1, affine=True)
        (relu): ReLU (inplace)
        (conv1): Conv2d(72, 48, kernel_size=(1, 1), stride=(1, 1), bias=False)
        (bn2): BatchNorm2d(48, eps=1e-05, momentum=0.1, affine=True)
        (conv2): Conv2d(48, 12, kernel_size=(3, 3), stride=(1, 1), padding=(1, 1), bias=False)
      )
      (2): BottleneckBlock (
        (bn1): BatchNorm2d(84, eps=1e-05, momentum=0.1, affine=True)
        (relu): ReLU (inplace)
        (conv1): Conv2d(84, 48, kernel_size=(1, 1), stride=(1, 1), bias=False)
        (bn2): BatchNorm2d(48, eps=1e-05, momentum=0.1, affine=True)
        (conv2): Conv2d(48, 12, kernel_size=(3, 3), stride=(1, 1), padding=(1, 1), bias=False)
      )
      (3): BottleneckBlock (
        (bn1): BatchNorm2d(96, eps=1e-05, momentum=0.1, affine=True)
        (relu): ReLU (inplace)
        (conv1): Conv2d(96, 48, kernel_size=(1, 1), stride=(1, 1), bias=False)
        (bn2): BatchNorm2d(48, eps=1e-05, momentum=0.1, affine=True)
        (conv2): Conv2d(48, 12, kernel_size=(3, 3), stride=(1, 1), padding=(1, 1), bias=False)
      )
      (4): BottleneckBlock (
        (bn1): BatchNorm2d(108, eps=1e-05, momentum=0.1, affine=True)
        (relu): ReLU (inplace)
        (conv1): Conv2d(108, 48, kernel_size=(1, 1), stride=(1, 1), bias=False)
        (bn2): BatchNorm2d(48, eps=1e-05, momentum=0.1, affine=True)
        (conv2): Conv2d(48, 12, kernel_size=(3, 3), stride=(1, 1), padding=(1, 1), bias=False)
      )
      (5): BottleneckBlock (
        (bn1): BatchNorm2d(120, eps=1e-05, momentum=0.1, affine=True)
        (relu): ReLU (inplace)
        (conv1): Conv2d(120, 48, kernel_size=(1, 1), stride=(1, 1), bias=False)
        (bn2): BatchNorm2d(48, eps=1e-05, momentum=0.1, affine=True)
        (conv2): Conv2d(48, 12, kernel_size=(3, 3), stride=(1, 1), padding=(1, 1), bias=False)
      )
    )
  )
  (bn1): BatchNorm2d(132, eps=1e-05, momentum=0.1, affine=True)
  (relu): ReLU (inplace)
  (fc): Linear (132 -> 100)
)
Files already downloaded and verified
Starting epoch number: 0 Learning rate: 0.1
Train: [0]	Time 23.409	Data 0.224	Loss 3.841	Prec@1 10.6980	Prec@5 31.6240	
Val: [0]	Time 1.395	Data 0.106	Loss 3.614	Prec@1 14.6000	Prec@5 39.9000	
Best Prec@1: [14.600]	
Starting epoch number: 1 Learning rate: 0.1
Train: [1]	Time 22.879	Data 0.297	Loss 3.152	Prec@1 21.9080	Prec@5 51.5520	
…
